2024_11_13/best_model.pth (torch, 32810 bytes, 2 tensors)

fc1.weight f4 [10, 784]
-0.019165117 -0.00817476 -0.023938201 -0.0068571605 -0.032837316 0.024599355 -0.03448304 -0.016159263
-0.02830045 0.03447235 -0.029919114 -0.0043954775 -0.024654498 -0.016745286 0.03381097 -0.0071094036
0.001440566 -0.027189728 -0.032579392 0.017508566 0.011002 0.00068055466 0.01678836 0.0036173984
-0.004581686 -0.013477253 -0.008658592 -0.007961772 0.0027988441 -0.00048859045 0.014758289 -0.0069156587
-0.019196033 -0.02874065 0.008818136 0.019325227 0.0177923 0.023475133 0.013366236 -0.006110147
0.030193571 0.017393472 -0.026748732 0.010694946 -0.009843606 0.009967278 0.017553521 -0.016225614
-0.029276883 -0.036480024 0.020596353 0.01794647 0.005051367 0.031369004 -0.024660086 0.028662924
-0.03384752 0.009555962 0.0076750778 -0.0043162284 -0.033514813 -0.019309819 0.0058780224 -0.02953027
0.020864742 -0.031266134 -0.009239265 -0.00988212 -0.0052867373 0.0061680507 -0.027652174 0.024974816
0.004974582 0.008442473 -0.029103417 -0.002344698 0.018376907 -0.012262381 0.018738579 0.005818171
0.003144876 0.013211176 0.0018738322 0.0048341714 -0.004882084 -0.0023256652 0.013974041 -0.02769246
0.0031081678 0.008100435 -0.017899267 0.009718909 -0.010997786 -0.030451382 0.0019375122 0.0157429
-0.027438726 0.0012897184 -0.032772828 0.007625888 0.0019436178 -0.0007063927 -0.032772124 0.0132981315
-0.0098220445 -0.031118354 -0.023489784 0.031889793 -0.029954389 -0.004198441 0.020541072 0.0187351
0.014000274 0.034035 0.01614102 0.024601132 -0.03277162 -0.00038849493 -0.015306903 -0.035059236
0.023616048 -0.0054861396 0.006847929 -0.03245888 0.02518914 -0.011751003 -0.019451845 -0.01231544
0.010117975 -0.030926105 0.026562529 0.0075535853 0.016587308 0.021444067 0.014326898 -0.01591122
-0.009926269 -0.018441882 -0.016825587 -0.0062248744 -0.004106831 0.032510165 -0.0011297461 -0.0077355313
0.012858467 -0.021482635 0.010105258 0.021424107 0.012426081 -0.03888639 -0.001726394 0.0059063546
0.013757522 0.029141273 0.024046127 0.006763076 0.0037519818 -0.006016413 0.037815537 0.026820127
0.011121442 -0.020879364 0.022043679 0.005089743 -0.0036165756 -0.009535184 0.009702128 0.0128729455
-0.01239413 -0.0027120076 0.028355222 -0.014610479 -0.0045143426 0.010433675 -0.011406498 0.001939299
0.00071921985 -0.02659343 -0.00779619 0.020723578 -0.034543864 -0.019962896 0.023831375 0.026009299
-0.023092702 0.040143788 -0.00074110244 0.012005245 -0.029296005 -0.01344835 -0.020138038 -0.026077358
0.029271467 0.011303292 0.014486052 0.013188454 0.02726845 -0.029659618 -0.019005854 0.023191232
-0.032978423 0.0022222667 -0.034413196 -0.014289012 -0.00018602666 0.020880511 0.023432026 -0.03534752
0.027285015 -0.0015215084 -0.011836676 -0.021654 0.013268369 0.0013990197 0.023990856 -0.013478449
0.039149065 -0.005452804 0.015711414 -0.031004544 0.0106975315 -0.013544426 -0.010053475 -0.018401956
0.015865272 0.017692553 -0.018699482 -0.0059379106 0.0018022782 -0.018027801 0.007327706 0.015994169
-0.02714921 0.016429704 -0.017302774 0.032071326 -0.025789678 0.008693199 -0.0070830155 -0.022329478
0.03007409 -0.022445735 -0.026760437 0.036175434 -0.026679568 0.029333573 0.010363846 0.011780766
-0.033299804 0.014706212 -0.02331467 -0.022719745 0.031851586 0.028067546 0.008362629 -0.016776448
00000000: 2a00 9dbc 6eef 05bc 0c1a c4bc 08b2 e0bb
00000010: 6c80 06bd 9684 c93c 173e 0dbd 6e60 84bc
00000020: 58d6 e7bc e132 0d3d ee18 f5bc f007 90bb
00000030: 3bf8 c9bc 692d 89bc 5f7d 0a3d 00f6 e8bb
00000040: 60d1 bc3a febc debc f871 05bd 206e 8f3c
00000050: bc41 343c 4067 323a be87 893c e011 6d3b
00000060: f821 96bb b2cf 5cbc c4dc 0dbc 1872 02bc
00000070: d06c 373b c014 00ba c0cc 713c c09c e2bb
00000080: 0041 9dbc 8371 ebbc f179 103c f04f 9e3c
00000090: 28c1 913c ec4e c03c 0ffe 5a3c a137 c8bb
000000a0: 8258 f73c c17c 8e3c 2820 dbbc db39 2f3c
000000b0: 1347 21bc cb4d 233c 67cc 8f3c 94eb 84bc
000000c0: 13d6 efbc 146c 15bd afb9 a83c 7a04 933c
000000d0: f085 a53b c97c 003d f303 cabc 82ce ea3c
000000e0: b2a3 0abd 9c90 1c3c 387f fb3b 266f 8dbb
000000f0: d446 09bd a02f 9ebc 6d9c c03b 77e9 f1bc
00000100: 89ec aa3c eb10 00bd 4960 17bc 9ee8 21bc
00000110: 5e3c adbb 5c1d ca3b d086 e2bc fc97 cc3c
00000120: d201 a33b 4c52 0a3c 4a6a eebc 81a9 19bb
00000130: 2b8b 963c 27e8 48bc a681 993c 5ba6 be3b
00000140: 441a 4e3b b073 583c 609b f53a f867 9e3b
00000150: e4f9 9fbb 306a 18bb 60f3 643c 4cdb e2bc
00000160: 67b2 4b3b b0b7 043c 7ca1 92bc 0f3c 1f3c
00000170: 0f30 34bc 2d75 f9bc 1ff4 fd3a 41f7 803c
00000180: 2ec7 e0bc c50b a93a cd3c 06bd 96e2 f93b
00000190: fec0 fe3a 362d 39ba 103c 06bd 68e0 593c
000001a0: a4ec 20bc ebeb febc a66d c0bc df9e 023d
000001b0: e862 f5bc 1393 89bb c045 a83c 5a7a 993c
000001c0: 6861 653c 4968 0b3d 2c3a 843c 5088 c93c
000001d0: 893b 06bd e8ae cbb9 cec9 7abc 469a 0fbd
000001e0: 7176 c13c 13c5 b3bb 9864 e03b 9af3 04bd
000001f0: 7559 ce3c 4787 40bc 7a59 9fbc b3c6 49bc
00000200: ddc5 253c be58 fdbc a999 d93c 1184 f73b
00000210: 1be2 873c 78ab af3c 5ebb 6a3c 3f58 82bc
00000220: caa1 22bc 6e13 97bc d0d5 89bc 08fa cbbb
00000230: 9892 86bb 6129 053d fd13 94ba 577a fdbb
00000240: 52ac 523c 5afc afbc 8690 253c 9c81 af3c
00000250: c396 4b3c 5647 1fbd 2c48 e2ba 188a c13b
00000260: 3b67 613c aeb9 ee3c 62fc c43c cb9c dd3b
00000270: cfe3 753b 5525 c5bb 77e4 1a3d e2b5 db3c
00000280: b536 363c 330b abbc f294 b43c dcc7 a63b
00000290: 1204 6dbb 7639 1cbc adf5 1e3c 0ce9 523c
000002a0: c010 4bbc f0bb 31bb 3649 e83c ca60 6fbc
000002b0: 0ded 93bb 01f2 2a3c 52e2 3abc 1430 fe3a
000002c0: 078a 3c3a 77da d9bc 2f77 ffbb 7ec4 a93c
000002d0: de7d 0dbd 3a89 a3bc 043a c33c 7411 d53c
000002e0: e82c bdbc d06d 243d 8b46 42ba a6b1 443c
000002f0: 2dfe efbc 7856 5cbc 87f8 a4bc 2fa0 d5bc
00000300: b7ca ef3c 7131 393c e856 6d3c 6314 583c
00000310: 1662 df3c baf8 f2bc 2ab2 9bbc 8afb bd3c
00000320: 6214 07bd 73a3 113b daf4 0cbd 761c 6abc
00000330: 2710 43b9 9b0d ab3c 85f4 bf3c 90c8 10bd
00000340: d384 df3c 5a6d c7ba 9eee 41bc bb63 b1bc
00000350: 9363 593c 505f b73a 7988 c43c b6d4 5cbc
00000360: c55a 203d 6fad b2bb 39b5 803c 3efd fdbc
00000370: b344 2f3c 71e9 5dbc 55b7 24bc b3bf 96bc
00000380: e3f7 813c f9ef 903c a82f 99bc ce92 c2bb
00000390: 6c3a ec3a 0aaf 93bc 411d f03b 3406 833c
000003a0: 0568 debc 9697 863c 8cbe 8dbc 395d 033d
000003b0: e044 d3bc eb6d 0e3c a418 e8bb 4fec b6bc
000003c0: f05d f63c 1ee0 b7bc b438 dbbc b12c 143d
000003d0: 1c8f dabc f64c f03c 1fcd 293c 1d04 413c
000003e0: 6065 08bd 53f2 703c 68fe bebc c21e babc
000003f0: cf76 023d e9ed e53c 6903 093c c36e 89bc

fc1.bias f4 [10]
0.021587059 0.022975087 0.020289203 -0.016298909 -0.025390077 0.019616675 0.009537968 0.03302556
0.011088122 0.01081046
00000000: 58d7 b03c 4036 bc3c 8b35 a63c 4a85 85bc
00000010: dafe cfbc 26b3 a03c 2345 1c3c cf45 073d
00000020: f4aa 353c 5b1e 313c
